better_model1591107709.5120068.pth (torch_old, 48167 bytes, 3 tensors)

weight f4 [50, 198]
0.07685955 -5.656475e-06 0.07791071 0.07834557 0.08600846 0.008645307 0.03561839 0.1029153
0.09156528 -0.0086757215 0.053984597 0.1300414 0.092895545 -0.017889848 0.039225448 0.054336805
0.09596675 -0.048819225 0.043082204 0.08573584 0.12578161 0.066747926 0.022371627 0.13084748
0.11159525 0.03437139 0.083516896 0.11968778 0.09291148 0.06029237 0.07127734 0.1612047
0.100914165 0.06718866 0.089545615 0.1003472 0.107388705 0.07713025 0.10406786 0.12994881
0.12140179 0.10964299 0.11587971 0.11498518 0.10335875 0.10704082 0.11210863 0.10319636
0.16234772 0.11167481 0.11979078 0.21791333 0.15631129 0.12291142 0.111149564 0.062066462
0.15357496 0.12135139 0.11241656 0.08708264 0.16549806 0.1339202 0.119925775 0.08504266
0.1674669 0.14474675 0.1375726 0.08774403 0.17520523 0.13604797 0.14282516 0.123775914
0.1686115 0.1254354 0.12800133 0.096995786 0.18948747 0.13664217 0.16618592 0.19990237
0.18703014 0.1397057 0.15904143 0.17647956 0.19068703 0.16771896 0.18890406 0.16407251
0.19998826 0.18555336 0.17203292 0.13878268 0.20789264 0.18000174 0.21534044 0.1718625
0.45970893 -1.4318265 -0.219567 -0.19875097 -0.20162845 -0.19184434 -0.2276785 -0.1876694
-0.18852182 -0.18080337 -0.21630391 -0.18190429 -0.16953647 -0.21741891 -0.196183 -0.1510866
-0.18793769 -0.238793 -0.1959811 -0.15874548 -0.17812288 -0.23421367 -0.16391073 -0.14363624
-0.14098309 -0.13439621 -0.20226888 -0.17281681 -0.16444811 -0.12222423 -0.18159704 -0.17209437
-0.13279383 -0.07974691 -0.17220472 -0.14534858 -0.14503527 -0.11896686 -0.17928879 -0.1699007
-0.13416222 -0.07212355 -0.16226318 -0.15377593 -0.126889 -0.07512342 -0.17679939 -0.13176338
-0.11506089 -0.2627471 -0.14989585 -0.13164335 -0.14725927 -0.14141212 -0.14627422 -0.1313898
-0.14633282 -0.15036163 -0.13620116 -0.11414521 -0.13192618 -0.13565119 -0.12745866 -0.10156444
-0.14115939 -0.14032696 -0.11748213 -0.06556496 -0.07947703 -0.20607227 -0.13667575 -0.078202285
-0.09504966 -0.18040393 -0.12513116 -0.07278013 -0.09424413 -0.19704561 -0.14718027 -0.0177868
-0.07989597 -0.18043335 -0.116317295 -0.027647633 -0.10721625 -0.16927649 -0.10572876 -0.026954424
-0.06397246 -0.15840258 -0.10950068 -0.019420866 -0.0747019 -0.16148329 -0.082778044 -0.016151585
-0.060895137 -0.11140166 -0.4843446 0.78451514 -0.2529034 -0.18644044 0.07685955 -5.656475e-06
0.07791071 0.07834557 0.08600846 0.008645307 0.03561839 0.1029153 0.09156528 -0.0086757215
0.053984597 0.1300414 0.092895545 -0.017889848 0.039225448 0.054336805 0.09596675 -0.048819225
0.043082204 0.08573584 0.12578161 0.066747926 0.022371627 0.13084748 0.11159525 0.03437139
0.083516896 0.11968778 0.09291148 0.06029237 0.07127734 0.1612047 0.100914165 0.06718866
0.089545615 0.1003472 0.107388705 0.07713025 0.10406786 0.12994881 0.12140179 0.10964299
0.11587971 0.11498518 0.10335875 0.10704082 0.11210863 0.10319636 0.16234772 0.11167481
0.11979078 0.21791333 0.15631129 0.12291142 0.111149564 0.062066462 0.15357496 0.12135139
00000000: 8a68 9d3d c0cc bdb6 a68f 9f3d a473 a03d
00000010: 3425 b03d 0ca5 0d3c 97e4 113d 42c5 d23d
00000020: 9486 bb3d 9d24 0ebc f41e 5d3d 9329 053e
00000030: 0540 be3d bb8d 92bc ddaa 203d 4590 5e3d
00000040: 378a c43d abf6 47bd f776 303d 4696 af3d
00000050: e5cc 003e 23b3 883d b444 b73c e2fc 053e
00000060: 0d8c e43d 04c9 0c3d e80a ab3d de1e f53d
00000070: 6048 be3d 22f5 763d dbf9 913d d812 253e
00000080: 16ac ce3d 359a 893d b163 b73d d582 cd3d
00000090: 9cee db3d 77f6 9d3d 8821 d53d 4d11 053e
000000a0: 80a1 f83d 818c e03d 5752 ed3d 5a7d eb3d
000000b0: c1ad d33d 3838 db3d 3699 e53d 9d58 d33d
000000c0: 7b3e 263e c3b5 e43d de54 f53d ac24 5f3e
000000d0: 1110 203e fcb8 fb3d 62a2 e33d 6739 7e3d
000000e0: c142 1d3e 1487 f83d a73a e63d 6258 b23d
000000f0: 5378 293e 6022 093e a59b f53d d92a ae3d
00000100: 717c 2b3e 7e38 143e d5df 0c3e 24b3 b33d
00000110: 0069 333e 2950 0b3e c240 123e 3a7e fd3d
00000120: 7ea8 2c3e 2372 003e c812 033e baa5 c63d
00000130: 0109 423e edeb 0b3e a42c 2a3e 35b3 4c3e
00000140: d484 3f3e 030f 0f3e c2db 223e 0fb7 343e
00000150: 7643 433e 85be 2b3e 1170 413e a002 283e
00000160: b9c9 4c3e b301 3e3e 6629 303e 0c1d 0e3e
00000170: cfe1 543e 6052 383e 3482 5c3e b9fc 2f3e
00000180: f85e eb3e 1746 b7bf 2cd6 60be 6085 4bbe
00000190: b077 4ebe d872 44be 8d24 69be 682c 40be
000001a0: dd0b 41be 8524 39be c67e 5dbe 1e45 3abe
000001b0: f89a 2dbe 10a3 5ebe 32e4 48be 72b6 1abe
000001c0: bd72 40be 2786 74be 45af 48be 2d8e 22be
000001d0: d865 36be b5d5 6fbe 37d8 27be 6115 13be
000001e0: df5d 10be 299f 09be 931f 4fbe e4f6 30be
000001f0: 1665 28be b250 fabd 93f4 39be 8239 30be
00000200: 1bfb 07be 5952 a3bd 6f56 30be 42d6 14be
00000210: 2084 14be e6a4 f3bd 7b97 37be 73fa 2dbe
00000220: d261 09be 83b5 93bd 5228 26be 7077 1dbe
00000230: 31ef 01be 4fda 99bd e60a 35be fbec 06be
00000240: 0ba5 ebbd ca86 86be 4c7e 19be 84cd 06be
00000250: 22cb 16be 57ce 10be e9c8 15be 0c8b 06be
00000260: 45d8 15be 66f8 19be 5178 0bbe f7c4 e9bd
00000270: a817 07be 25e8 0abe 8684 02be 0401 d0bd
00000280: 168c 10be dfb1 0fbe 799a f0bd ec46 86bd
00000290: dac4 a2bd 9c04 53be baf4 0bbe 8528 a0bd
000002a0: 65a9 c2bd cfbb 38be 6222 00be c00d 95bd
000002b0: 1103 c1bd 53c6 49be 6db6 16be a0b5 91bc
000002c0: 80a0 a3bd 85c3 38be c337 eebd 4a7d e2bc
000002d0: 3194 dbbd d156 2dbe 5288 d8bd 86cf dcbc
000002e0: fe03 83bd 4934 22be e441 e0bd 8218 9fbc
000002f0: 4ffd 98bd e05b 25be 8987 a9bd 5450 84bc
00000300: 2e6d 79bd 8e26 e4bd 04fc f7be fcd5 483f
00000310: 8e7c 81be 3eea 3ebe 8a68 9d3d c0cc bdb6
00000320: a68f 9f3d a473 a03d 3425 b03d 0ca5 0d3c
00000330: 97e4 113d 42c5 d23d 9486 bb3d 9d24 0ebc
00000340: f41e 5d3d 9329 053e 0540 be3d bb8d 92bc
00000350: ddaa 203d 4590 5e3d 378a c43d abf6 47bd
00000360: f776 303d 4696 af3d e5cc 003e 23b3 883d
00000370: b444 b73c e2fc 053e 0d8c e43d 04c9 0c3d
00000380: e80a ab3d de1e f53d 6048 be3d 22f5 763d
00000390: dbf9 913d d812 253e 16ac ce3d 359a 893d
000003a0: b163 b73d d582 cd3d 9cee db3d 77f6 9d3d
000003b0: 8821 d53d 4d11 053e 80a1 f83d 818c e03d
000003c0: 5752 ed3d 5a7d eb3d c1ad d33d 3838 db3d
000003d0: 3699 e53d 9d58 d33d 7b3e 263e c3b5 e43d
000003e0: de54 f53d ac24 5f3e 1110 203e fcb8 fb3d
000003f0: 62a2 e33d 6739 7e3d c142 1d3e 1487 f83d

bias f4 [50]
-0.43933687 -0.43933687 -0.43933687 -0.43933687 -0.43933687 -0.43933687 -0.43933687 -0.43933687
-0.43933687 -0.43933687 -0.43933687 -0.43933687 -0.43933687 -0.43933687 -0.43933687 -0.43933687
-0.43933687 -0.43933687 -0.43933687 -0.43933687 -0.43933687 -0.43933687 -0.43933687 -0.43933687
-0.43933687 -0.43933687 -0.43933687 -0.43933687 -0.43933687 -0.43933687 -0.43933687 -0.43933687
-0.43933687 -0.43933687 -0.43933687 -0.43933687 -0.43933687 -0.43933687 -0.43933687 -0.43933687
-0.43933687 -0.43933687 -0.43933687 -0.43933687 -0.43933687 -0.43933687 -0.43933687 -0.43933687
-0.70087 -0.70087
00000000: c3f0 e0be c3f0 e0be c3f0 e0be c3f0 e0be
00000010: c3f0 e0be c3f0 e0be c3f0 e0be c3f0 e0be
00000020: c3f0 e0be c3f0 e0be c3f0 e0be c3f0 e0be
00000030: c3f0 e0be c3f0 e0be c3f0 e0be c3f0 e0be
00000040: c3f0 e0be c3f0 e0be c3f0 e0be c3f0 e0be
00000050: c3f0 e0be c3f0 e0be c3f0 e0be c3f0 e0be
00000060: c3f0 e0be c3f0 e0be c3f0 e0be c3f0 e0be
00000070: c3f0 e0be c3f0 e0be c3f0 e0be c3f0 e0be
00000080: c3f0 e0be c3f0 e0be c3f0 e0be c3f0 e0be
00000090: c3f0 e0be c3f0 e0be c3f0 e0be c3f0 e0be
000000a0: c3f0 e0be c3f0 e0be c3f0 e0be c3f0 e0be
000000b0: c3f0 e0be c3f0 e0be c3f0 e0be c3f0 e0be
000000c0: 376c 33bf 376c 33bf

weight f4 [1, 50]
-0.69668573 -0.69668573 -0.69668573 -0.69668573 -0.69668573 -0.69668573 -0.69668573 -0.69668573
-0.69668573 -0.69668573 -0.69668573 -0.69668573 -0.69668573 -0.69668573 -0.69668573 -0.69668573
-0.69668573 -0.69668573 -0.69668573 -0.69668573 -0.69668573 -0.69668573 -0.69668573 -0.69668573
-0.69668573 -0.69668573 -0.69668573 -0.69668573 -0.69668573 -0.69668573 -0.69668573 -0.69668573
-0.69668573 -0.69668573 -0.69668573 -0.69668573 -0.69668573 -0.69668573 -0.69668573 -0.69668573
-0.69668573 -0.69668573 -0.69668573 -0.69668573 -0.69668573 -0.69668573 -0.69668573 -0.69668573
-2.8736825 -2.8736825
00000000: ff59 32bf ff59 32bf ff59 32bf ff59 32bf
00000010: ff59 32bf ff59 32bf ff59 32bf ff59 32bf
00000020: ff59 32bf ff59 32bf ff59 32bf ff59 32bf
00000030: ff59 32bf ff59 32bf ff59 32bf ff59 32bf
00000040: ff59 32bf ff59 32bf ff59 32bf ff59 32bf
00000050: ff59 32bf ff59 32bf ff59 32bf ff59 32bf
00000060: ff59 32bf ff59 32bf ff59 32bf ff59 32bf
00000070: ff59 32bf ff59 32bf ff59 32bf ff59 32bf
00000080: ff59 32bf ff59 32bf ff59 32bf ff59 32bf
00000090: ff59 32bf ff59 32bf ff59 32bf ff59 32bf
000000a0: ff59 32bf ff59 32bf ff59 32bf ff59 32bf
000000b0: ff59 32bf ff59 32bf ff59 32bf ff59 32bf
000000c0: 6aea 37c0 6aea 37c0
