model_300000_games_05082025.pth (torch, 44389 bytes, 3 tensors)

weight f4 [50, 198]
00000000: 7b8d 283e 4d5b 3dbd 3af8 513d 043e 263e
00000010: 9b1b 1b3e 1a9f 98bd 55dc 383d cf26 143e
00000020: cbb0 2c3e 0f7b b9bd d226 9d3d 85d4 3a3e
00000030: f395 2e3e 7446 b3bd 143e b53d 1997 493e
00000040: f53f 4d3e 2e9f 03be d134 c13d 3a31 3a3e
00000050: ffef 063e d0c4 dfbd c0f4 b33d fdfc 473e
00000060: 18d8 423e 3c9a 43bc 0400 ea3d e53d 943e
00000070: 6c2a 3a3e 5f0b f43c a846 f23d 214d 823e
00000080: a527 523e 2108 923d e9cd 383e f24e 803e
00000090: 654e 6a3e 4564 b33d e23d 3b3e 79f9 9e3e
000000a0: 68da 543e f4fb d93d 22e8 7b3e 4a70 933e
000000b0: d245 5b3e 51b5 f83d ba53 983e a606 803e
000000c0: 006f 843e 906f 083e 304d 2f3e 01ed c23e
000000d0: 27f5 843e 1692 223e d3d7 7a3e 4419 0e3e
000000e0: c367 963e 9928 3d3e 7e1c 873e dacc 303e
000000f0: eed7 9c3e 640f 513e 665b 8d3e bdf0 4d3e
00000100: 3cfe 9f3e 50ab 553e 6599 a03e eefa 4f3e
00000110: 7d3d b63e 3109 413e 3e97 803e 2ff8 a33e
00000120: 7081 a53e 52e8 803e b327 8c3e c376 413e
00000130: fc4a c83e a584 493e 5661 913e c311 e93e
00000140: 0cef c13e 3a41 763e 2e6c a13e 3e63 d93e
00000150: fa44 d13e b65d 983e efe2 b63e 28c4 b53e
00000160: c84e cf3e 358f b33e bbb3 cc3e 7c2a 8f3e
00000170: 22ff cb3e 9499 b93e 85a0 d43e fa28 ad3e
00000180: cd67 6f3f 2922 32c0 aea9 52be 30b8 54be
00000190: fa81 5cbe 3b5f a8be 6d75 46be b9ad 0bbe
000001a0: 7c09 4cbe 2716 9ebe d84c 52be ca6b 05be
000001b0: 52e8 44be aa41 aebe c6ca 4abe 422d e2bd
000001c0: 97e5 2fbe 6520 bcbe f05a 3fbe f0d5 9bbd
000001d0: 8b33 2abe b38e acbe 8df0 adbd d20b d1bd
000001e0: 5f6c 47be f3a1 2cbe d10f 18be da87 f2bc
000001f0: 6792 13be a9f0 80be 36c0 fabd 48b7 66bd
00000200: 6d01 1cbe 26b4 2abe fab9 1abe 3974 40bd
00000210: 48c5 fabd 9960 30be 467d 18be 646b 85bd
00000220: a9d0 03be 5083 16be 8165 01be df2c efbc
00000230: 157c 04be e8e6 d8bd 7a5a 05be 3ab9 85bd
00000240: aa51 02be e401 7fbe 769d a2bd 2dd5 3bbd
00000250: 89ee 09be c127 2fbe 5811 f8bd f163 85bd
00000260: 5669 9bbd 5e8a 62be edd1 e3bd b909 cebc
00000270: e1d9 a3bd eaab 47be 99e2 d9bd a547 40bd
00000280: e719 95bd c309 1dbe 98a1 c7bd 217c eabb
00000290: 8589 8bbd c631 14be b5c8 b4bd 39d3 193d
000002a0: d827 6cbd 1803 13be 86ce 03be 0295 9f3d
000002b0: 9c70 dcbc d079 e7bd 07ce dcbd 9d24 0f3e
000002c0: ae53 c9bc 5bc5 d7bd f558 d1bd d8ed 2a3e
000002d0: aafc f9bc f945 05be cd90 bebd 7ccf 4a3d
000002e0: 3c33 5dbd 7c53 bdbd 2e0a 95bd e7fd 763d
000002f0: 1db3 eebc 25a5 cebd 7907 b5bd 0fed 853d
00000300: 21a9 47bd c7cd 8abd 5c3e 07bf 7c12 593e
00000310: 161c 03bf f0fc c3be 7b8d 283e 4d5b 3dbd
00000320: 3af8 513d 043e 263e 9b1b 1b3e 1a9f 98bd
00000330: 55dc 383d cf26 143e cbb0 2c3e 0f7b b9bd
00000340: d226 9d3d 85d4 3a3e f395 2e3e 7446 b3bd
00000350: 143e b53d 1997 493e f53f 4d3e 2e9f 03be
00000360: d134 c13d 3a31 3a3e ffef 063e d0c4 dfbd
00000370: c0f4 b33d fdfc 473e 18d8 423e 3c9a 43bc
00000380: 0400 ea3d e53d 943e 6c2a 3a3e 5f0b f43c
00000390: a846 f23d 214d 823e a527 523e 2108 923d
000003a0: e9cd 383e f24e 803e 654e 6a3e 4564 b33d
000003b0: e23d 3b3e 79f9 9e3e 68da 543e f4fb d93d
000003c0: 22e8 7b3e 4a70 933e d245 5b3e 51b5 f83d
000003d0: ba53 983e a606 803e 006f 843e 906f 083e
000003e0: 304d 2f3e 01ed c23e 27f5 843e 1692 223e
000003f0: d3d7 7a3e 4419 0e3e c367 963e 9928 3d3e
0.1646022 -0.04622965 0.051262118 0.16234595 0.1514725 -0.07452221 0.045132 0.1446793
0.16864316 -0.09056675 0.0767342 0.18245132 0.17049389 -0.08753672 0.08849731 0.19686545
0.20043929 -0.12853691 0.09433902 0.18182841 0.13177489 -0.10926211 0.08786917 0.19530101
0.19027746 -0.011938628 0.11425784 0.28953472 0.18180245 0.029790578 0.11829883 0.2544947
0.20522936 0.07130457 0.18047298 0.2506023 0.22881468 0.08759359 0.18285325 0.31049708
0.2078644 0.10643759 0.2460027 0.28796607 0.21413353 0.12143958 0.29751378 0.25005072
0.25865936 0.13323808 0.17119288 0.38071445 0.25968286 0.1587604 0.24496393 0.13876826
0.2937604 0.18472518 0.26388925 0.17265645 0.3063349 0.20416027 0.27608794 0.20111366
0.31248653 0.20866132 0.3136703 0.20310566 0.35593787 0.18851162 0.2511539 0.32025287
0.32325315 0.25177246 0.27374038 0.1889296 0.3911971 0.19679506 0.28394574 0.45521364
0.3787769 0.2404832 0.31527847 0.42458528 0.40872937 0.29758996 0.35720012 0.35501218
0.40489793 0.35070196 0.39980873 0.279621 0.39843088 0.36249983 0.41528717 0.33820325
0.9351776 -2.783335 -0.2057254 -0.20773387 -0.21533957 -0.32885155 -0.19380732 -0.13640489
-0.19925493 -0.30876276 -0.20537126 -0.130294 -0.19229248 -0.34034473 -0.19803914 -0.110437885
-0.17177425 -0.36743465 -0.18687034 -0.07609165 -0.16621225 -0.3370262 -0.08493147 -0.10207333
-0.19474934 -0.16858654 -0.14849783 -0.029605795 -0.14411317 -0.2518361 -0.122436926 -0.056327134
-0.15234919 -0.16670284 -0.15110007 -0.04698584 -0.1224466 -0.17224349 -0.14891538 -0.06514624
-0.12872566 -0.14698529 -0.12636377 -0.0291962 -0.12937959 -0.10590917 -0.13022795 -0.0652947
-0.12726465 -0.24903065 -0.079401895 -0.045857597 -0.134699 -0.17105009 -0.12112683 -0.06513203
-0.075884506 -0.22123095 -0.111240245 -0.02515112 -0.080005415 -0.19499174 -0.10638923 -0.046943326
-0.07280331 -0.15335755 -0.097476184 -0.0071559106 -0.06813339 -0.14472112 -0.08827344 0.037554953
-0.057655185 -0.14356649 -0.12871751 0.07792093 -0.026909165 -0.11302531 -0.10781484 0.1397881
-0.024576034 -0.105356894 -0.10222045 0.16692293 -0.030515987 -0.13014974 -0.09304962 0.04951428
-0.05400394 -0.09244439 -0.07277332 0.060300734 -0.029138142 -0.100900926 -0.08839316 0.06539356
-0.04874528 -0.0677753 -0.5282953 0.21198457 -0.5121473 -0.38278913 0.1646022 -0.04622965
0.051262118 0.16234595 0.1514725 -0.07452221 0.045132 0.1446793 0.16864316 -0.09056675
0.0767342 0.18245132 0.17049389 -0.08753672 0.08849731 0.19686545 0.20043929 -0.12853691
0.09433902 0.18182841 0.13177489 -0.10926211 0.08786917 0.19530101 0.19027746 -0.011938628
0.11425784 0.28953472 0.18180245 0.029790578 0.11829883 0.2544947 0.20522936 0.07130457
0.18047298 0.2506023 0.22881468 0.08759359 0.18285325 0.31049708 0.2078644 0.10643759
0.2460027 0.28796607 0.21413353 0.12143958 0.29751378 0.25005072 0.25865936 0.13323808
0.17119288 0.38071445 0.25968286 0.1587604 0.24496393 0.13876826 0.2937604 0.18472518

bias f4 [50]
00000000: a110 65bf a110 65bf a110 65bf a110 65bf
00000010: a110 65bf a110 65bf a110 65bf a110 65bf
00000020: a110 65bf a110 65bf a110 65bf a110 65bf
00000030: a110 65bf a110 65bf a110 65bf a110 65bf
00000040: a110 65bf a110 65bf a110 65bf a110 65bf
00000050: a110 65bf a110 65bf a110 65bf a110 65bf
00000060: a110 65bf a110 65bf a110 65bf a110 65bf
00000070: a110 65bf a110 65bf a110 65bf a110 65bf
00000080: a110 65bf a110 65bf a110 65bf a110 65bf
00000090: a110 65bf a110 65bf a110 65bf a110 65bf
000000a0: a110 65bf a110 65bf a110 65bf a110 65bf
000000b0: a110 65bf a110 65bf a110 65bf a110 65bf
000000c0: c3fc cfbf c3fc cfbf
-0.894785 -0.894785 -0.894785 -0.894785 -0.894785 -0.894785 -0.894785 -0.894785
-0.894785 -0.894785 -0.894785 -0.894785 -0.894785 -0.894785 -0.894785 -0.894785
-0.894785 -0.894785 -0.894785 -0.894785 -0.894785 -0.894785 -0.894785 -0.894785
-0.894785 -0.894785 -0.894785 -0.894785 -0.894785 -0.894785 -0.894785 -0.894785
-0.894785 -0.894785 -0.894785 -0.894785 -0.894785 -0.894785 -0.894785 -0.894785
-0.894785 -0.894785 -0.894785 -0.894785 -0.894785 -0.894785 -0.894785 -0.894785
-1.6249012 -1.6249012

weight f4 [1, 50]
00000000: fbb3 b1be fbb3 b1be fbb3 b1be fbb3 b1be
00000010: fbb3 b1be fbb3 b1be fbb3 b1be fbb3 b1be
00000020: fbb3 b1be fbb3 b1be fbb3 b1be fbb3 b1be
00000030: fbb3 b1be fbb3 b1be fbb3 b1be fbb3 b1be
00000040: fbb3 b1be fbb3 b1be fbb3 b1be fbb3 b1be
00000050: fbb3 b1be fbb3 b1be fbb3 b1be fbb3 b1be
00000060: fbb3 b1be fbb3 b1be fbb3 b1be fbb3 b1be
00000070: fbb3 b1be fbb3 b1be fbb3 b1be fbb3 b1be
00000080: fbb3 b1be fbb3 b1be fbb3 b1be fbb3 b1be
00000090: fbb3 b1be fbb3 b1be fbb3 b1be fbb3 b1be
000000a0: fbb3 b1be fbb3 b1be fbb3 b1be fbb3 b1be
000000b0: fbb3 b1be fbb3 b1be fbb3 b1be fbb3 b1be
000000c0: b2e4 e7c0 b2e4 e7c0
-0.34707627 -0.34707627 -0.34707627 -0.34707627 -0.34707627 -0.34707627 -0.34707627 -0.34707627
-0.34707627 -0.34707627 -0.34707627 -0.34707627 -0.34707627 -0.34707627 -0.34707627 -0.34707627
-0.34707627 -0.34707627 -0.34707627 -0.34707627 -0.34707627 -0.34707627 -0.34707627 -0.34707627
-0.34707627 -0.34707627 -0.34707627 -0.34707627 -0.34707627 -0.34707627 -0.34707627 -0.34707627
-0.34707627 -0.34707627 -0.34707627 -0.34707627 -0.34707627 -0.34707627 -0.34707627 -0.34707627
-0.34707627 -0.34707627 -0.34707627 -0.34707627 -0.34707627 -0.34707627 -0.34707627 -0.34707627
-7.246667 -7.246667
