model_205000_games_04082025.pth (torch, 44389 bytes, 3 tensors)

weight f4 [50, 198]
0	0x3e0afcfc	0.13573068
1	0xbd82de12	-0.06390013
2	0x3d5843e1	0.05279911
3	0x3e1c32c5	0.15253742
4	0x3e232774	0.15933019
5	0xbd761167	-0.06007519
6	0x3d90779e	0.07054065
7	0x3e088624	0.1333242
8	0x3e24b89c	0.16086048
9	0xbd8c002c	-0.0683597
10	0x3dbe34e7	0.09287434
11	0x3e0414db	0.1289858
12	0x3e25adbe	0.16179559
13	0xbd3cf6c9	-0.04613379
14	0x3d814271	0.06311501
15	0x3e2e2292	0.17005375
16	0x3e2532ac	0.16132611
17	0xbde6eb36	-0.11275332
18	0x3d6e9153	0.05824406
19	0x3e2febae	0.17179748
20	0x3dcab9f2	0.098987475
21	0xbdc32416	-0.09528367
22	0x3d44c649	0.048040662
23	0x3e410bcd	0.18852158
24	0x3e4072a2	0.18793729
25	0x3bbede67	0.0058248523
26	0x3de2d162	0.11075093
27	0x3e95eacc	0.29280698
28	0x3e30626b	0.17225043
29	0x3d2f155b	0.042744976
30	0x3dd904b2	0.10596599
31	0x3e7677da	0.24069157
32	0x3e481f84	0.19543272
33	0x3d9640b5	0.07336561
34	0x3e4bd523	0.19905524
35	0x3e6e89eb	0.23294799
36	0x3e3c7dba	0.18407336
37	0x3da51c58	0.08062047
38	0x3e44005f	0.19140767
39	0x3e8952d7	0.26821014
40	0x3e4ed57b	0.20198624
41	0x3de24bf6	0.11049645
42	0x3e7238e3	0.23654513
43	0x3e8b085b	0.27154812
44	0x3e410ea9	0.18853249
45	0x3e05a8b9	0.13052644
46	0x3e88ddc3	0.2673169
47	0x3e57c78a	0.21072212
48	0x3e646a34	0.22306138
49	0x3de1c458	0.11023778
50	0x3e1bc015	0.15209992
51	0x3ea58557	0.32328293
52	0x3e830fe6	0.25598067
53	0x3e5a1309	0.21296324
54	0x3e662c18	0.22477758
55	0x3dfe3c19	0.124138065
56	0x3e8c70f1	0.27429917
57	0x3e2b89b4	0.16751748
58	0x3e6c6b9c	0.23087925
59	0x3e16667b	0.1468753
60	0x3e93e7e4	0.28887856
61	0x3e1f16c6	0.15536031
62	0x3e877b8e	0.26461452
63	0x3e372d9b	0.17888491
64	0x3e8d8cb9	0.27646425
65	0x3e459fc3	0.19299226
66	0x3e82dc23	0.25558576
67	0x3e24bf54	0.16088611
68	0x3eaa715f	0.3328962
69	0x3e0f3070	0.13983321
70	0x3e53d878	0.20688045
71	0x3e8a3a19	0.2699745
72	0x3e9eb437	0.30996868
73	0x3e752235	0.2393883
74	0x3e7cab9a	0.24674836
75	0x3e2bc182	0.16773036
76	0x3eb31176	0.3497426
77	0x3e4bc746	0.19900236
78	0x3e845f30	0.25853872
79	0x3ed71ad6	0.42012662
80	0x3eb8eda2	0.361188
81	0x3e5e6660	0.2171874
82	0x3e8c8f2c	0.2745298
83	0x3eba422a	0.36378604
84	0x3eca0156	0.39454144
85	0x3e80f6b1	0.2518821
86	0x3ea77f1b	0.3271416
87	0x3ea0ed2e	0.31430954
88	0x3ecc0e68	0.3985474
89	0x3e9d7877	0.3075597
90	0x3ebf8ab4	0.3741051
91	0x3e845170	0.25843382
92	0x3ebcb266	0.36854857
93	0x3eae5a72	0.3405338
94	0x3ec67705	0.3876268
95	0x3e9cffa4	0.30663788
96	0x3f6041a7	0.8760018
97	0xc021a165	-2.5254757
98	0xbe4aa805	-0.19790657
99	0xbe569a56	-0.20957312
100	0xbe54aec5	-0.20769794
101	0xbea5e58f	-0.32401702
102	0xbe5d1ab6	-0.2159222
103	0xbe225ef6	-0.15856537
104	0xbe4c65c4	-0.19960696
105	0xbe95ec4c	-0.29281843
106	0xbe36af9f	-0.17840432
107	0xbdd6aaec	-0.104818195
108	0xbe270e27	-0.16313992
109	0xbea6ca58	-0.3257625
110	0xbe447326	-0.1918455
111	0xbdccc918	-0.09999293
112	0xbe1b47a3	-0.15164046
113	0xbeb49b77	-0.3527486
114	0xbe4704f0	-0.19435477
115	0xbd9f60ce	-0.07782136
116	0xbe108c3f	-0.14116
117	0xbead7c70	-0.33884
118	0xbde115af	-0.10990464
119	0xbe23994a	-0.15976444
120	0xbe538cf7	-0.20659243
121	0xbe2fb492	-0.17158726
122	0xbe32f21f	-0.17475174
123	0xbd1b220b	-0.037874263
124	0xbde8933f	-0.1135621
125	0xbe60087e	-0.2187824
126	0xbdfa90be	-0.12234639
127	0xbd39872e	-0.045294933
128	0xbe31727f	-0.17328833
129	0xbe1833ec	-0.14863557
130	0xbe161c92	-0.14659336
131	0xbd28c076	-0.04119917
132	0xbe294e1e	-0.16533706
133	0xbe214cba	-0.15751925
134	0xbe180fd6	-0.14849791
135	0xbd0e9f25	-0.03481974
136	0xbe1266eb	-0.14297073
137	0xbe02bb60	-0.1276679
138	0xbe05f868	-0.1308304
139	0xbcd769fd	-0.026295656
140	0xbdfccdba	-0.12343927
141	0xbdc4063d	-0.09571502
142	0xbe0e9b0a	-0.1392633
143	0xbd637de0	-0.055539966
144	0xbddc3642	-0.10752536
145	0xbe60b693	-0.21944647
146	0xbda77bf9	-0.08177943
147	0xbd82527b	-0.06363388
148	0xbe387d86	-0.18016633
149	0xbe335417	-0.17512546
150	0xbde82ab2	-0.113362685
151	0xbd411402	-0.04713822
152	0xbd8dc442	-0.06922199
153	0xbe62136c	-0.22077721
154	0xbdccca1a	-0.09999485
155	0xbd27bbdc	-0.04095064
156	0xbdbc7612	-0.092022076
157	0xbe44e2d4	-0.19227153
158	0xbda0187d	-0.07817171
159	0xbc3a1736	-0.011358073
160	0xbd98a1ff	-0.07452773
161	0xbe2662d8	-0.16248643
162	0xbdc3f1da	-0.09567614
163	0xbc1e7854	-0.009672243
164	0xbd9bc9e0	-0.07606864
165	0xbdf4782f	-0.11936986
166	0xbdc0bd31	-0.094110854
167	0x3d45a2d1	0.048250977
168	0xbd4012d9	-0.046892975
169	0xbe180b3f	-0.1484804
170	0xbe05bd36	-0.1306046
171	0x3e22bf17	0.15893207
172	0xbc3542f8	-0.01106333
173	0xbddd9ff1	-0.10821522
174	0xbe1f90c9	-0.15582575
175	0x3e10bc01	0.14134218
176	0xbd22e7fb	-0.039772015
177	0xbdb6c06f	-0.089234225
178	0xbdda474f	-0.10658132
179	0x3ddf6d4d	0.10909519
180	0xbd195825	-0.037437577
181	0xbd8733b6	-0.0660166
182	0xbda77031	-0.08175696
183	0x3df9bb3c	0.12193915
184	0xbd1f37c4	-0.03887154
185	0xbd9a3ee3	-0.07531526
186	0xbd9815a7	-0.07426005
187	0x3d224735	0.03961869
188	0xbd3215c9	-0.043477807
189	0xbd9c57f1	-0.07633961
190	0xbda26ea5	-0.0793126
191	0x3db8bf4b	0.09020861
192	0xbda16704	-0.07880977
193	0xbdc28bbc	-0.094993085
194	0xbefe3165	-0.4964706
195	0x3e847280	0.25868607
196	0xbeed7c3d	-0.4638385
197	0xbeadc156	-0.33936566
198	0x3e0afcfc	0.13573068
199	0xbd82de12	-0.06390013
200	0x3d5843e1	0.05279911
201	0x3e1c32c5	0.15253742
202	0x3e232774	0.15933019
203	0xbd761167	-0.06007519
204	0x3d90779e	0.07054065
205	0x3e088624	0.1333242
206	0x3e24b89c	0.16086048
207	0xbd8c002c	-0.0683597
208	0x3dbe34e7	0.09287434
209	0x3e0414db	0.1289858
210	0x3e25adbe	0.16179559
211	0xbd3cf6c9	-0.04613379
212	0x3d814271	0.06311501
213	0x3e2e2292	0.17005375
214	0x3e2532ac	0.16132611
215	0xbde6eb36	-0.11275332
216	0x3d6e9153	0.05824406
217	0x3e2febae	0.17179748
218	0x3dcab9f2	0.098987475
219	0xbdc32416	-0.09528367
220	0x3d44c649	0.048040662
221	0x3e410bcd	0.18852158
222	0x3e4072a2	0.18793729
223	0x3bbede67	0.0058248523
224	0x3de2d162	0.11075093
225	0x3e95eacc	0.29280698
226	0x3e30626b	0.17225043
227	0x3d2f155b	0.042744976
228	0x3dd904b2	0.10596599
229	0x3e7677da	0.24069157
230	0x3e481f84	0.19543272
231	0x3d9640b5	0.07336561
232	0x3e4bd523	0.19905524
233	0x3e6e89eb	0.23294799
234	0x3e3c7dba	0.18407336
235	0x3da51c58	0.08062047
236	0x3e44005f	0.19140767
237	0x3e8952d7	0.26821014
238	0x3e4ed57b	0.20198624
239	0x3de24bf6	0.11049645
240	0x3e7238e3	0.23654513
241	0x3e8b085b	0.27154812
242	0x3e410ea9	0.18853249
243	0x3e05a8b9	0.13052644
244	0x3e88ddc3	0.2673169
245	0x3e57c78a	0.21072212
246	0x3e646a34	0.22306138
247	0x3de1c458	0.11023778
248	0x3e1bc015	0.15209992
249	0x3ea58557	0.32328293
250	0x3e830fe6	0.25598067
251	0x3e5a1309	0.21296324
252	0x3e662c18	0.22477758
253	0x3dfe3c19	0.124138065
254	0x3e8c70f1	0.27429917
255	0x3e2b89b4	0.16751748

bias f4 [50]
0	0xbf4d9c15	-0.8031629
1	0xbf4d9c15	-0.8031629
2	0xbf4d9c15	-0.8031629
3	0xbf4d9c15	-0.8031629
4	0xbf4d9c15	-0.8031629
5	0xbf4d9c15	-0.8031629
6	0xbf4d9c15	-0.8031629
7	0xbf4d9c15	-0.8031629
8	0xbf4d9c15	-0.8031629
9	0xbf4d9c15	-0.8031629
10	0xbf4d9c15	-0.8031629
11	0xbf4d9c15	-0.8031629
12	0xbf4d9c15	-0.8031629
13	0xbf4d9c15	-0.8031629
14	0xbf4d9c15	-0.8031629
15	0xbf4d9c15	-0.8031629
16	0xbf4d9c15	-0.8031629
17	0xbf4d9c15	-0.8031629
18	0xbf4d9c15	-0.8031629
19	0xbf4d9c15	-0.8031629
20	0xbf4d9c15	-0.8031629
21	0xbf4d9c15	-0.8031629
22	0xbf4d9c15	-0.8031629
23	0xbf4d9c15	-0.8031629
24	0xbf4d9c15	-0.8031629
25	0xbf4d9c15	-0.8031629
26	0xbf4d9c15	-0.8031629
27	0xbf4d9c15	-0.8031629
28	0xbf4d9c15	-0.8031629
29	0xbf4d9c15	-0.8031629
30	0xbf4d9c15	-0.8031629
31	0xbf4d9c15	-0.8031629
32	0xbf4d9c15	-0.8031629
33	0xbf4d9c15	-0.8031629
34	0xbf4d9c15	-0.8031629
35	0xbf4d9c15	-0.8031629
36	0xbf4d9c15	-0.8031629
37	0xbf4d9c15	-0.8031629
38	0xbf4d9c15	-0.8031629
39	0xbf4d9c15	-0.8031629
40	0xbf4d9c15	-0.8031629
41	0xbf4d9c15	-0.8031629
42	0xbf4d9c15	-0.8031629
43	0xbf4d9c15	-0.8031629
44	0xbf4d9c15	-0.8031629
45	0xbf4d9c15	-0.8031629
46	0xbf4d9c15	-0.8031629
47	0xbf4d9c15	-0.8031629
48	0xbfd39078	-1.6528463
49	0xbfd39078	-1.6528463

weight f4 [1, 50]
0	0xbed9da53	-0.4254938
1	0xbed9da53	-0.4254938
2	0xbed9da53	-0.4254938
3	0xbed9da53	-0.4254938
4	0xbed9da53	-0.4254938
5	0xbed9da53	-0.4254938
6	0xbed9da53	-0.4254938
7	0xbed9da53	-0.4254938
8	0xbed9da53	-0.4254938
9	0xbed9da53	-0.4254938
10	0xbed9da53	-0.4254938
11	0xbed9da53	-0.4254938
12	0xbed9da53	-0.4254938
13	0xbed9da53	-0.4254938
14	0xbed9da53	-0.4254938
15	0xbed9da53	-0.4254938
16	0xbed9da53	-0.4254938
17	0xbed9da53	-0.4254938
18	0xbed9da53	-0.4254938
19	0xbed9da53	-0.4254938
20	0xbed9da53	-0.4254938
21	0xbed9da53	-0.4254938
22	0xbed9da53	-0.4254938
23	0xbed9da53	-0.4254938
24	0xbed9da53	-0.4254938
25	0xbed9da53	-0.4254938
26	0xbed9da53	-0.4254938
27	0xbed9da53	-0.4254938
28	0xbed9da53	-0.4254938
29	0xbed9da53	-0.4254938
30	0xbed9da53	-0.4254938
31	0xbed9da53	-0.4254938
32	0xbed9da53	-0.4254938
33	0xbed9da53	-0.4254938
34	0xbed9da53	-0.4254938
35	0xbed9da53	-0.4254938
36	0xbed9da53	-0.4254938
37	0xbed9da53	-0.4254938
38	0xbed9da53	-0.4254938
39	0xbed9da53	-0.4254938
40	0xbed9da53	-0.4254938
41	0xbed9da53	-0.4254938
42	0xbed9da53	-0.4254938
43	0xbed9da53	-0.4254938
44	0xbed9da53	-0.4254938
45	0xbed9da53	-0.4254938
46	0xbed9da53	-0.4254938
47	0xbed9da53	-0.4254938
48	0xc0edd794	-7.4325657
49	0xc0edd794	-7.4325657
