model_215000_games_04082025.pth (torch, 44389 bytes, 3 tensors)

weight f4 [50, 198]
0	0x3e1e4bca	0.15458599
1	0xbd39023f	-0.045168158
2	0x3d8dfbec	0.06932816
3	0x3dfb318e	0.12265311
4	0x3e1ad3d9	0.15119876
5	0xbdad2bca	-0.08455618
6	0x3dd6e234	0.104923636
7	0x3dfe6087	0.12420755
8	0x3e2d7a02	0.16941074
9	0xbd6318b7	-0.05544349
10	0x3d99e262	0.07513882
11	0x3e183d79	0.148672
12	0x3e187704	0.14889151
13	0xbdcd50c6	-0.10025172
14	0x3d3e0faa	0.046401657
15	0x3e39560d	0.18099232
16	0x3e17dbfa	0.14830008
17	0xbde93ce2	-0.113885656
18	0x3d63c104	0.055603996
19	0x3e320d2b	0.17387836
20	0x3d39403b	0.04522727
21	0xbe05a75b	-0.13052122
22	0x3d4be754	0.04978116
23	0x3e34d37d	0.17658801
24	0x3e35fa63	0.17771296
25	0x3c37cd3e	0.011218367
26	0x3dc6c598	0.09705657
27	0x3e95ec2c	0.29281747
28	0x3e296b19	0.16544761
29	0x3d4abddf	0.04949748
30	0x3dcf4ca8	0.10122043
31	0x3e5a9004	0.21344
32	0x3e26fa14	0.16306335
33	0x3d99c33c	0.07507941
34	0x3e49fb1f	0.19724701
35	0x3e6eed0d	0.23332615
36	0x3e4c3b33	0.19944458
37	0x3da779d7	0.08177536
38	0x3e38e765	0.1805702
39	0x3e8a9a5c	0.27070892
40	0x3e39e66e	0.18154308
41	0x3dea3214	0.11435333
42	0x3e71c084	0.23608595
43	0x3e8bc11c	0.27295768
44	0x3e4621d2	0.19348839
45	0x3e074dcd	0.13213272
46	0x3e8b0921	0.27155402
47	0x3e5be790	0.21475053
48	0x3e63724a	0.22211567
49	0x3dc7da5f	0.09758448
50	0x3e0c5b33	0.13706665
51	0x3eaa5541	0.3326817
52	0x3e81e70b	0.25371584
53	0x3e558f3e	0.20855424
54	0x3e693777	0.22775064
55	0x3e02e528	0.12782729
56	0x3e8f1216	0.27943486
57	0x3e1ed48e	0.1551077
58	0x3e6f57b0	0.23373294
59	0x3e195de7	0.14977227
60	0x3e9ba7a6	0.30401343
61	0x3e2863ff	0.16444395
62	0x3e88d1a4	0.26722443
63	0x3e3ad36b	0.18244712
64	0x3e90e36c	0.2829851
65	0x3e417381	0.18891717
66	0x3e861bd9	0.2619312
67	0x3e2a2a2d	0.16617651
68	0x3eb62a83	0.3557931
69	0x3e1f38e5	0.15549047
70	0x3e57261a	0.21010628
71	0x3e8e5c70	0.278049
72	0x3eaa56f4	0.33269465
73	0x3e7d081b	0.24710123
74	0x3e7df379	0.24799909
75	0x3e2dd1be	0.16974542
76	0x3ebcbc76	0.36862534
77	0x3e43d127	0.19122754
78	0x3e797199	0.2435974
79	0x3ed68018	0.41894603
80	0x3ec26b7f	0.37972638
81	0x3e5410b7	0.20709501
82	0x3e8c5f24	0.27416337
83	0x3ec00ee7	0.3751137
84	0x3ec1f468	0.3788178
85	0x3e730f19	0.23736228
86	0x3ea85971	0.32880738
87	0x3ea40ff4	0.3204342
88	0x3edb8d46	0.4288122
89	0x3e9f7c7d	0.31149665
90	0x3ebeb6a4	0.3724872
91	0x3e85bc07	0.26120016
92	0x3ed2e37c	0.41189182
93	0x3eb5fb44	0.35543263
94	0x3ec9c154	0.3940531
95	0x3e9e4e18	0.30918956
96	0x3f6fc027	0.93652576
97	0xc022a271	-2.5411646
98	0xbe4692d4	-0.19391948
99	0xbe3cf0ec	-0.1845128
100	0xbe5424f0	-0.20717216
101	0xbea3a06f	-0.3195834
102	0xbe514aff	-0.20438765
103	0xbe2429d0	-0.16031575
104	0xbe4f7859	-0.20260753
105	0xbe96b90d	-0.29438058
106	0xbe3c79fe	-0.18405911
107	0xbdd461c3	-0.10370209
108	0xbe2cc254	-0.16871005
109	0xbea68ddc	-0.32530105
110	0xbe26ccc9	-0.16289057
111	0xbd8a4091	-0.06750596
112	0xbe24d72c	-0.16097707
113	0xbeb6f43d	-0.35733214
114	0xbe2b4b58	-0.1672796
115	0xbd9f2333	-0.077703856
116	0xbe1ce9aa	-0.15323511
117	0xbeae9a9b	-0.3410233
118	0xbdd7f1d3	-0.10544171
119	0xbe1d0254	-0.1533292
120	0xbe520bff	-0.20512389
121	0xbe2fceb8	-0.171687
122	0xbe438194	-0.19092399
123	0xbd551dac	-0.05203025
124	0xbe0319f9	-0.12802877
125	0xbe61134d	-0.21980019
126	0xbde80571	-0.11329163
127	0xbcfc7050	-0.030815274
128	0xbe2c2943	-0.16812615
129	0xbe1b98be	-0.15194985
130	0xbe27b635	-0.163781
131	0xbd69178a	-0.056907214
132	0xbe2583b3	-0.1616352
133	0xbe2393ce	-0.15974352
134	0xbe0f921b	-0.14020579
135	0xbd4c5e68	-0.04989472
136	0xbe137005	-0.14398201
137	0xbe08a85e	-0.13345477
138	0xbe00992e	-0.12558433
139	0xbcf89b47	-0.03034748
140	0xbe082b3c	-0.13297743
141	0xbdceacf2	-0.100915805
142	0xbdf2ed30	-0.11861646
143	0xbd4b15b0	-0.04958123
144	0xbdd0ef78	-0.10201925
145	0xbe5e1498	-0.21687543
146	0xbd8fbe41	-0.0701871
147	0xbd66fbf8	-0.05639264
148	0xbe3520a0	-0.17688227
149	0xbe340489	-0.17579855
150	0xbdb9e66d	-0.09077153
151	0xbd2b9ec4	-0.041899458
152	0xbd8e481b	-0.06947347
153	0xbe68ef13	-0.2274745
154	0xbdcd329a	-0.10019417
155	0xbd102af2	-0.035197206
156	0xbd9763fd	-0.07392118
157	0xbe4557b2	-0.19271734
158	0xbdbb9869	-0.09159929
159	0xbc373e1d	-0.011184243
160	0xbdad1ccd	-0.08452759
161	0xbe2e516a	-0.17023245
162	0xbdccaf6a	-0.09994395
163	0xbcdde065	-0.027084539
164	0xbd2a7ec5	-0.041624803
165	0xbde8ec77	-0.11373227
166	0xbdc3cc22	-0.095604196
167	0x3d9998c2	0.07499839
168	0xbd0d213d	-0.034455527
169	0xbe127590	-0.14302659
170	0xbe05728b	-0.13031976
171	0x3e1ece09	0.15508284
172	0xbd187396	-0.037219606
173	0xbdbd48d5	-0.09242407
174	0xbe027e8a	-0.12743583
175	0x3e28ddb6	0.16490826
176	0xbcbdc534	-0.023165323
177	0xbda8e1fc	-0.08246228
178	0xbddc6e06	-0.10763173
179	0x3de355ef	0.11100375
180	0xbd3fe82d	-0.04685228
181	0xbd96288c	-0.073319525
182	0xbdbb9722	-0.09159686
183	0x3dc6bba8	0.09703761
184	0xbd4a3a66	-0.0493721
185	0xbdf55584	-0.119792014
186	0xbd9497c7	-0.07255512
187	0x3d0e40d2	0.034729786
188	0xbd626e7d	-0.05528115
189	0xbdc90d5f	-0.098170035
190	0xbd9b9ab8	-0.0759787
191	0x3dcdd642	0.10050632
192	0xbd9123fb	-0.07086941
193	0xbddd0654	-0.107922226
194	0xbf013790	-0.50475407
195	0x3e814bab	0.25253043
196	0xbef2354c	-0.47306287
197	0xbeace9de	-0.33772177
198	0x3e1e4bca	0.15458599
199	0xbd39023f	-0.045168158
200	0x3d8dfbec	0.06932816
201	0x3dfb318e	0.12265311
202	0x3e1ad3d9	0.15119876
203	0xbdad2bca	-0.08455618
204	0x3dd6e234	0.104923636
205	0x3dfe6087	0.12420755
206	0x3e2d7a02	0.16941074
207	0xbd6318b7	-0.05544349
208	0x3d99e262	0.07513882
209	0x3e183d79	0.148672
210	0x3e187704	0.14889151
211	0xbdcd50c6	-0.10025172
212	0x3d3e0faa	0.046401657
213	0x3e39560d	0.18099232
214	0x3e17dbfa	0.14830008
215	0xbde93ce2	-0.113885656
216	0x3d63c104	0.055603996
217	0x3e320d2b	0.17387836
218	0x3d39403b	0.04522727
219	0xbe05a75b	-0.13052122
220	0x3d4be754	0.04978116
221	0x3e34d37d	0.17658801
222	0x3e35fa63	0.17771296
223	0x3c37cd3e	0.011218367
224	0x3dc6c598	0.09705657
225	0x3e95ec2c	0.29281747
226	0x3e296b19	0.16544761
227	0x3d4abddf	0.04949748
228	0x3dcf4ca8	0.10122043
229	0x3e5a9004	0.21344
230	0x3e26fa14	0.16306335
231	0x3d99c33c	0.07507941
232	0x3e49fb1f	0.19724701
233	0x3e6eed0d	0.23332615
234	0x3e4c3b33	0.19944458
235	0x3da779d7	0.08177536
236	0x3e38e765	0.1805702
237	0x3e8a9a5c	0.27070892
238	0x3e39e66e	0.18154308
239	0x3dea3214	0.11435333
240	0x3e71c084	0.23608595
241	0x3e8bc11c	0.27295768
242	0x3e4621d2	0.19348839
243	0x3e074dcd	0.13213272
244	0x3e8b0921	0.27155402
245	0x3e5be790	0.21475053
246	0x3e63724a	0.22211567
247	0x3dc7da5f	0.09758448
248	0x3e0c5b33	0.13706665
249	0x3eaa5541	0.3326817
250	0x3e81e70b	0.25371584
251	0x3e558f3e	0.20855424
252	0x3e693777	0.22775064
253	0x3e02e528	0.12782729
254	0x3e8f1216	0.27943486
255	0x3e1ed48e	0.1551077

bias f4 [50]
0	0xbf4f8c28	-0.81073236
1	0xbf4f8c28	-0.81073236
2	0xbf4f8c28	-0.81073236
3	0xbf4f8c28	-0.81073236
4	0xbf4f8c28	-0.81073236
5	0xbf4f8c28	-0.81073236
6	0xbf4f8c28	-0.81073236
7	0xbf4f8c28	-0.81073236
8	0xbf4f8c28	-0.81073236
9	0xbf4f8c28	-0.81073236
10	0xbf4f8c28	-0.81073236
11	0xbf4f8c28	-0.81073236
12	0xbf4f8c28	-0.81073236
13	0xbf4f8c28	-0.81073236
14	0xbf4f8c28	-0.81073236
15	0xbf4f8c28	-0.81073236
16	0xbf4f8c28	-0.81073236
17	0xbf4f8c28	-0.81073236
18	0xbf4f8c28	-0.81073236
19	0xbf4f8c28	-0.81073236
20	0xbf4f8c28	-0.81073236
21	0xbf4f8c28	-0.81073236
22	0xbf4f8c28	-0.81073236
23	0xbf4f8c28	-0.81073236
24	0xbf4f8c28	-0.81073236
25	0xbf4f8c28	-0.81073236
26	0xbf4f8c28	-0.81073236
27	0xbf4f8c28	-0.81073236
28	0xbf4f8c28	-0.81073236
29	0xbf4f8c28	-0.81073236
30	0xbf4f8c28	-0.81073236
31	0xbf4f8c28	-0.81073236
32	0xbf4f8c28	-0.81073236
33	0xbf4f8c28	-0.81073236
34	0xbf4f8c28	-0.81073236
35	0xbf4f8c28	-0.81073236
36	0xbf4f8c28	-0.81073236
37	0xbf4f8c28	-0.81073236
38	0xbf4f8c28	-0.81073236
39	0xbf4f8c28	-0.81073236
40	0xbf4f8c28	-0.81073236
41	0xbf4f8c28	-0.81073236
42	0xbf4f8c28	-0.81073236
43	0xbf4f8c28	-0.81073236
44	0xbf4f8c28	-0.81073236
45	0xbf4f8c28	-0.81073236
46	0xbf4f8c28	-0.81073236
47	0xbf4f8c28	-0.81073236
48	0xbfd6a147	-1.6767968
49	0xbfd6a147	-1.6767968

weight f4 [1, 50]
0	0xbeade34a	-0.3396247
1	0xbeade34a	-0.3396247
2	0xbeade34a	-0.3396247
3	0xbeade34a	-0.3396247
4	0xbeade34a	-0.3396247
5	0xbeade34a	-0.3396247
6	0xbeade34a	-0.3396247
7	0xbeade34a	-0.3396247
8	0xbeade34a	-0.3396247
9	0xbeade34a	-0.3396247
10	0xbeade34a	-0.3396247
11	0xbeade34a	-0.3396247
12	0xbeade34a	-0.3396247
13	0xbeade34a	-0.3396247
14	0xbeade34a	-0.3396247
15	0xbeade34a	-0.3396247
16	0xbeade34a	-0.3396247
17	0xbeade34a	-0.3396247
18	0xbeade34a	-0.3396247
19	0xbeade34a	-0.3396247
20	0xbeade34a	-0.3396247
21	0xbeade34a	-0.3396247
22	0xbeade34a	-0.3396247
23	0xbeade34a	-0.3396247
24	0xbeade34a	-0.3396247
25	0xbeade34a	-0.3396247
26	0xbeade34a	-0.3396247
27	0xbeade34a	-0.3396247
28	0xbeade34a	-0.3396247
29	0xbeade34a	-0.3396247
30	0xbeade34a	-0.3396247
31	0xbeade34a	-0.3396247
32	0xbeade34a	-0.3396247
33	0xbeade34a	-0.3396247
34	0xbeade34a	-0.3396247
35	0xbeade34a	-0.3396247
36	0xbeade34a	-0.3396247
37	0xbeade34a	-0.3396247
38	0xbeade34a	-0.3396247
39	0xbeade34a	-0.3396247
40	0xbeade34a	-0.3396247
41	0xbeade34a	-0.3396247
42	0xbeade34a	-0.3396247
43	0xbeade34a	-0.3396247
44	0xbeade34a	-0.3396247
45	0xbeade34a	-0.3396247
46	0xbeade34a	-0.3396247
47	0xbeade34a	-0.3396247
48	0xc0eec125	-7.461077
49	0xc0eec125	-7.461077
