model_350000_14082025.pth (torch, 44137 bytes, 3 tensors)

weight f4 [50, 198]
0.1690474 -0.042312093 0.09104685 0.1958848 0.16538899 -0.04859128 0.097228006 0.17288159
0.18379906 -0.07665337 0.09120577 0.18576464 0.1851431 -0.08748073 0.09667694 0.19971463
0.20248558 -0.10272128 0.09472664 0.21317026 0.15017362 -0.082821764 0.09199376 0.2252975
0.21237561 0.010766986 0.11771764 0.2887526 0.18667011 0.052416366 0.12159919 0.26817104
0.21346347 0.082031325 0.18006796 0.25363183 0.21774802 0.08318096 0.17351899 0.3121003
0.2290118 0.10978166 0.24626163 0.2911069 0.21780846 0.13989636 0.30418047 0.25212264
0.25990012 0.124330364 0.16256689 0.38021597 0.27774715 0.16580355 0.24754491 0.14010026
0.29991007 0.17965767 0.26466152 0.17409474 0.30549884 0.20018487 0.27621725 0.20170347
0.29717886 0.20439906 0.31403413 0.20355642 0.36333418 0.19173367 0.2498833 0.32156625
0.3278985 0.26213983 0.27745694 0.19180092 0.3780197 0.2020363 0.27816114 0.4579706
0.38236305 0.2368186 0.31303543 0.42678544 0.39477047 0.272039 0.35169727 0.35665902
0.4079573 0.3491944 0.4045296 0.28244585 0.4024872 0.37367833 0.41743562 0.34057292
0.9357463 -2.7850237 -0.19331013 -0.20114109 -0.21266373 -0.3298679 -0.19331297 -0.155141
-0.20140885 -0.3116711 -0.1809883 -0.12555884 -0.18111433 -0.3396492 -0.17134939 -0.09683589
-0.16901082 -0.36701065 -0.16637638 -0.06861131 -0.15759462 -0.3380919 -0.09278287 -0.09578146
-0.19325916 -0.16908063 -0.15263304 -0.029765151 -0.13947856 -0.25325483 -0.12143232 -0.04483959
-0.14998926 -0.16740367 -0.13198714 -0.050647628 -0.12021009 -0.17593303 -0.13240689 -0.049716007
-0.13789001 -0.15119928 -0.12134463 -0.04762264 -0.13650703 -0.11021834 -0.118618175 -0.06423228
-0.09599916 -0.22737773 -0.06710209 -0.04120358 -0.13384366 -0.17119488 -0.092681766 -0.045701634
-0.07461206 -0.21981306 -0.09057455 -0.031241119 -0.07136689 -0.19468333 -0.08241767 -0.028574506
-0.07149854 -0.15036322 -0.07221871 -0.006296523 -0.050821617 -0.14012326 -0.08186168 0.033802535
-0.038154148 -0.12579456 -0.058208626 0.1387143 -0.034999955 -0.103944115 -0.100085996 0.14070146
-0.033884358 -0.087988555 -0.10398922 0.13967432 -0.036363058 -0.14364499 -0.075407445 0.088801876
-0.044563457 -0.087763265 -0.07333404 0.06850028 -0.04884465 -0.07641014 -0.09253745 0.062653825
-0.042889364 -0.06742511 -0.51130736 0.21427363 -0.49299377 -0.35185882 0.1690474 -0.042312093
0.09104685 0.1958848 0.16538899 -0.04859128 0.097228006 0.17288159 0.18379906 -0.07665337
0.09120577 0.18576464 0.1851431 -0.08748073 0.09667694 0.19971463 0.20248558 -0.10272128
0.09472664 0.21317026 0.15017362 -0.082821764 0.09199376 0.2252975 0.21237561 0.010766986
0.11771764 0.2887526 0.18667011 0.052416366 0.12159919 0.26817104 0.21346347 0.082031325
0.18006796 0.25363183 0.21774802 0.08318096 0.17351899 0.3121003 0.2290118 0.10978166
0.24626163 0.2911069 0.21780846 0.13989636 0.30418047 0.25212264 0.25990012 0.124330364
0.16256689 0.38021597 0.27774715 0.16580355 0.24754491 0.14010026 0.29991007 0.17965767
00000000: c31a 2d3e 724f 2dbd c576 ba3d 0696 483e
00000010: bb5b 293e a607 47bd 7a1f c73d df07 313e
00000020: d235 3c3e 71fc 9cbd 17ca ba3d 1639 3e3e
00000030: 2796 3d3e 1929 b3bd 8ffe c53d fe81 4c3e
00000040: 6158 4f3e 895f d2bd 0a00 c23d 4e49 5a3e
00000050: 1dc7 193e 759e a9bd 3967 bc3d 63b4 663e
00000060: fe78 593e 0368 303c f215 f13d 61d7 933e
00000070: 7326 3f3e 8bb2 563d ff08 f93d b74d 893e
00000080: 2b96 5a3e 0a00 a83d bc63 383e 08dc 813e
00000090: 56f9 5e3e c75a aa3d f6ae 313e 9ccb 9f3e
000000a0: 1282 6a3e 35d5 e03d 022c 7c3e f70b 953e
000000b0: 2e09 5f3e fe40 0f3e 8bbd 9b3e 3816 813e
000000c0: a111 853e eba0 fe3d ef77 263e abab c23e
000000d0: e034 8e3e 68c8 293e 6a7c 7d3e 7176 0f3e
000000e0: d08d 993e 2ef8 373e b781 873e e445 323e
000000f0: 586a 9c3e 43fd 4c3e 596c 8d3e 5b8b 4e3e
00000100: d427 983e fd4d 513e 15c9 a03e 1871 503e
00000110: f006 ba3e d555 443e 68e1 7f3e 55a4 a43e
00000120: 50e2 a73e 3137 863e d60e 8e3e 7667 443e
00000130: cc8b c13e 9be2 4e3e 236b 8e3e 1f7b ea3e
00000140: 17c5 c33e 9380 723e 2e46 a03e 9f83 da3e
00000150: 5b1f ca3e b248 8b3e aa11 b43e 039c b63e
00000160: c7df d03e 9cc9 b23e 811e cf3e be9c 903e
00000170: cd12 ce3e c452 bf3e 1fba d53e 935f ae3e
00000180: 128d 6f3f d43d 32c0 17f3 45be eef7 4dbe
00000190: 85c4 59be 72e4 a8be d6f3 45be 48dd 1ebe
000001a0: 1f3e 4ebe 5b93 9fbe ff54 39be 7f92 00be
000001b0: 0976 39be 80e6 adbe 3776 2fbe e551 c6bd
000001c0: 2c11 2dbe d2e8 bbbe 925e 2abe 1684 8cbd
000001d0: 7c60 21be 621a adbe f204 bebd 1229 c4bd
000001e0: bbe5 45be 7923 2dbe d64b 1cbe 0cd6 f3bc
000001f0: 78d3 0ebe 9eaa 81be 82b1 f8bd b8a9 37bd
00000200: c996 19be de6b 2bbe a327 07be e373 4fbd
00000210: b530 f6bd ca27 34be ac95 07be 03a3 4bbd
00000220: 0a33 0dbe fcd3 1abe 8983 f8bd f50f 43bd
00000230: 80c8 0bbe 27ba e1bd 16ee f2bd 378c 83bd
00000240: 359b c4bd b5d5 68be d26c 89bd 16c5 28bd
00000250: 500e 09be b64d 2fbe f0cf bdbd a331 3bbd
00000260: 35ce 98bd ad16 61be 267f b9bd 60ed ffbc
00000270: ce28 92bd 115b 47be 98ca a8bd 1515 eabc
00000280: d46d 92bd d1f8 19be 67e7 93bd 1053 cebb
00000290: 542a 50bd 797c 0fbe 19a7 a7bd 8774 0a3d
000002a0: 8647 1cbd 4ad0 00be 2b6c 6ebd 1f0b 0e3e
000002b0: 1d5c 0fbd a7e0 d4bd e3f9 ccbd 0b14 103e
000002c0: 53ca 0abd 5833 b4bd 4df8 d4bd c906 0f3e
000002d0: 6ef1 14bd ac17 13be 386f 9abd c2dd b53d
000002e0: 2c88 36bd 3abd b3bd 2830 96bd e049 8c3d
000002f0: 5411 48bd eb7c 9cbd 4684 bdbd a650 803d
00000300: c2ac 2fbd 2d16 8abd 0ae5 02bf 8c6a 5b3e
00000310: ae69 fcbe d726 b4be c31a 2d3e 724f 2dbd
00000320: c576 ba3d 0696 483e bb5b 293e a607 47bd
00000330: 7a1f c73d df07 313e d235 3c3e 71fc 9cbd
00000340: 17ca ba3d 1639 3e3e 2796 3d3e 1929 b3bd
00000350: 8ffe c53d fe81 4c3e 6158 4f3e 895f d2bd
00000360: 0a00 c23d 4e49 5a3e 1dc7 193e 759e a9bd
00000370: 3967 bc3d 63b4 663e fe78 593e 0368 303c
00000380: f215 f13d 61d7 933e 7326 3f3e 8bb2 563d
00000390: ff08 f93d b74d 893e 2b96 5a3e 0a00 a83d
000003a0: bc63 383e 08dc 813e 56f9 5e3e c75a aa3d
000003b0: f6ae 313e 9ccb 9f3e 1282 6a3e 35d5 e03d
000003c0: 022c 7c3e f70b 953e 2e09 5f3e fe40 0f3e
000003d0: 8bbd 9b3e 3816 813e a111 853e eba0 fe3d
000003e0: ef77 263e abab c23e e034 8e3e 68c8 293e
000003f0: 6a7c 7d3e 7176 0f3e d08d 993e 2ef8 373e

bias f4 [50]
-0.8448591 -0.8448591 -0.8448591 -0.8448591 -0.8448591 -0.8448591 -0.8448591 -0.8448591
-0.8448591 -0.8448591 -0.8448591 -0.8448591 -0.8448591 -0.8448591 -0.8448591 -0.8448591
-0.8448591 -0.8448591 -0.8448591 -0.8448591 -0.8448591 -0.8448591 -0.8448591 -0.8448591
-0.8448591 -0.8448591 -0.8448591 -0.8448591 -0.8448591 -0.8448591 -0.8448591 -0.8448591
-0.8448591 -0.8448591 -0.8448591 -0.8448591 -0.8448591 -0.8448591 -0.8448591 -0.8448591
-0.8448591 -0.8448591 -0.8448591 -0.8448591 -0.8448591 -0.8448591 -0.8448591 -0.8448591
-1.6955795 -1.6955795
00000000: b048 58bf b048 58bf b048 58bf b048 58bf
00000010: b048 58bf b048 58bf b048 58bf b048 58bf
00000020: b048 58bf b048 58bf b048 58bf b048 58bf
00000030: b048 58bf b048 58bf b048 58bf b048 58bf
00000040: b048 58bf b048 58bf b048 58bf b048 58bf
00000050: b048 58bf b048 58bf b048 58bf b048 58bf
00000060: b048 58bf b048 58bf b048 58bf b048 58bf
00000070: b048 58bf b048 58bf b048 58bf b048 58bf
00000080: b048 58bf b048 58bf b048 58bf b048 58bf
00000090: b048 58bf b048 58bf b048 58bf b048 58bf
000000a0: b048 58bf b048 58bf b048 58bf b048 58bf
000000b0: b048 58bf b048 58bf b048 58bf b048 58bf
000000c0: c008 d9bf c008 d9bf

weight f4 [1, 50]
-0.30783033 -0.30783033 -0.30783033 -0.30783033 -0.30783033 -0.30783033 -0.30783033 -0.30783033
-0.30783033 -0.30783033 -0.30783033 -0.30783033 -0.30783033 -0.30783033 -0.30783033 -0.30783033
-0.30783033 -0.30783033 -0.30783033 -0.30783033 -0.30783033 -0.30783033 -0.30783033 -0.30783033
-0.30783033 -0.30783033 -0.30783033 -0.30783033 -0.30783033 -0.30783033 -0.30783033 -0.30783033
-0.30783033 -0.30783033 -0.30783033 -0.30783033 -0.30783033 -0.30783033 -0.30783033 -0.30783033
-0.30783033 -0.30783033 -0.30783033 -0.30783033 -0.30783033 -0.30783033 -0.30783033 -0.30783033
-7.2722387 -7.2722387
00000000: f09b 9dbe f09b 9dbe f09b 9dbe f09b 9dbe
00000010: f09b 9dbe f09b 9dbe f09b 9dbe f09b 9dbe
00000020: f09b 9dbe f09b 9dbe f09b 9dbe f09b 9dbe
00000030: f09b 9dbe f09b 9dbe f09b 9dbe f09b 9dbe
00000040: f09b 9dbe f09b 9dbe f09b 9dbe f09b 9dbe
00000050: f09b 9dbe f09b 9dbe f09b 9dbe f09b 9dbe
00000060: f09b 9dbe f09b 9dbe f09b 9dbe f09b 9dbe
00000070: f09b 9dbe f09b 9dbe f09b 9dbe f09b 9dbe
00000080: f09b 9dbe f09b 9dbe f09b 9dbe f09b 9dbe
00000090: f09b 9dbe f09b 9dbe f09b 9dbe f09b 9dbe
000000a0: f09b 9dbe f09b 9dbe f09b 9dbe f09b 9dbe
000000b0: f09b 9dbe f09b 9dbe f09b 9dbe f09b 9dbe
000000c0: 2eb6 e8c0 2eb6 e8c0
