model.pth (torch_old, 48171 bytes, 3 tensors)

weight f4 [50, 198]
0	0x3e1158ab	0.1419398
1	0xbdb308d0	-0.08741915
2	0x3d9da9f2	0.0769843
3	0x3daaaf9d	0.08334277
4	0x3e0e97ae	0.13925049
5	0xbd9ec35b	-0.07752105
6	0x3dcb1bde	0.099174246
7	0x3de3bc1e	0.11119865
8	0x3e08e39d	0.13368078
9	0xbdb16e13	-0.08663573
10	0x3daea61c	0.085277766
11	0x3e05e087	0.13073932
12	0x3e260a60	0.16214895
13	0xbda8f18b	-0.08249196
14	0x3da26ad3	0.07930531
15	0x3e29a641	0.16567327
16	0x3e177d7b	0.14793961
17	0xbdff0d0b	-0.124536596
18	0x3d84c682	0.06483175
19	0x3e2dc39e	0.16969153
20	0x3dcf1104	0.10110667
21	0xbddf43e9	-0.10901625
22	0x3d589a07	0.052881267
23	0x3e39dd28	0.1815077
24	0x3e2bf0d9	0.16791095
25	0xbc09d6f3	-0.008413064
26	0x3d9f84d6	0.07789008
27	0x3e8fbd1d	0.2807397
28	0x3e198b8b	0.14994638
29	0x3d2b03a5	0.041751523
30	0x3dcebe58	0.10094899
31	0x3e74a66b	0.23891608
32	0x3e3a728d	0.1820776
33	0x3d82a7bc	0.06379649
34	0x3e4e047b	0.20118897
35	0x3e6e24c7	0.23256217
36	0x3e2ffdda	0.1718668
37	0x3d96de1b	0.07366582
38	0x3e3e858f	0.18605636
39	0x3e84b688	0.2592051
40	0x3e391543	0.18074517
41	0x3dc1ceaa	0.09463246
42	0x3e6ec204	0.23316199
43	0x3e8a0b3e	0.26961702
44	0x3e3c0013	0.18359403
45	0x3e02fef7	0.12792574
46	0x3e87437c	0.26418674
47	0x3e56870c	0.20949954
48	0x3e5412f1	0.2071035
49	0x3dc951c4	0.09830049
50	0x3e0dd58c	0.13850993
51	0x3eb1c9d6	0.347243
52	0x3e808353	0.25100192
53	0x3e5dbcb7	0.2165402
54	0x3e65e72e	0.2245147
55	0x3dfdb628	0.12388259
56	0x3e827805	0.25482193
57	0x3e2d31da	0.16913548
58	0x3e6f4535	0.23366244
59	0x3e16a5a9	0.14711632
60	0x3e922592	0.2854429
61	0x3e17c456	0.1482099
62	0x3e889439	0.26675585
63	0x3e36eb30	0.17863154
64	0x3e8a3a08	0.269974
65	0x3e458ac4	0.19291216
66	0x3e81d17f	0.25355145
67	0x3e2199e6	0.15781364
68	0x3eaa6fbe	0.33288378
69	0x3e1114f9	0.14168157
70	0x3e5241c4	0.205329
71	0x3e8a6598	0.27030635
72	0x3e9b236c	0.30300462
73	0x3e70ef4b	0.23528783
74	0x3e78d4df	0.24299954
75	0x3e2aac4e	0.16667292
76	0x3eb0bb16	0.34517735
77	0x3e35f3df	0.1776881
78	0x3e827e68	0.25487065
79	0x3ed51890	0.41620302
80	0x3eb8cd3e	0.36094087
81	0x3e552bb5	0.20817454
82	0x3e90b1f1	0.2826076
83	0x3ebad20c	0.36488378
84	0x3ebe6494	0.3718611
85	0x3e7a849e	0.24464652
86	0x3eaa016f	0.3320422
87	0x3e9fe568	0.3122971
88	0x3ec68b0f	0.38777968
89	0x3e938e7e	0.2881965
90	0x3ebd5831	0.36981347
91	0x3e83becf	0.25731513
92	0x3ec270f4	0.379768
93	0x3eae345c	0.34024322
94	0x3ec49b76	0.38399857
95	0x3e9c2d72	0.30503422
96	0x3f6544d5	0.89558154
97	0xc01ea6dc	-2.4789343
98	0xbe477c61	-0.1948104
99	0xbe580536	-0.21095738
100	0xbe56d0e8	-0.20978129
101	0xbea52221	-0.322526
102	0xbe4a3ccd	-0.19749756
103	0xbe24161f	-0.16024064
104	0xbe4d1590	-0.20027757
105	0xbe951901	-0.2912064
106	0xbe431ef9	-0.19054784
107	0xbdd36af3	-0.10323133
108	0xbe20d464	-0.1570602
109	0xbea6522c	-0.32484567
110	0xbe3fe9d3	-0.1874154
111	0xbda1fd50	-0.07909644
112	0xbe16b7ed	-0.147186
113	0xbeb4edda	-0.35337716
114	0xbe32ba42	-0.17453864
115	0xbd23dbde	-0.040004604
116	0xbdfffaff	-0.124990456
117	0xbead86fe	-0.33892053
118	0xbe005f1c	-0.12536281
119	0xbe2763d2	-0.16346672
120	0xbe5397e1	-0.20663406
121	0xbe2fc2b3	-0.17164116
122	0xbe1c4d21	-0.15263797
123	0xbcb203f2	-0.021730397
124	0xbdd3f67a	-0.10349746
125	0xbe5d8942	-0.21634391
126	0xbdd6479f	-0.104628794
127	0xbd79c8ab	-0.060982388
128	0xbe303b77	-0.17210184
129	0xbe177f19	-0.14794578
130	0xbe227942	-0.15866569
131	0xbd8126d2	-0.063062325
132	0xbe2d0687	-0.16897021
133	0xbe238b40	-0.15971088
134	0xbe181098	-0.1485008
135	0xbcc4a1ec	-0.024002992
136	0xbe170170	-0.14746642
137	0xbe046b18	-0.12931478
138	0xbe0224d9	-0.12709369
139	0xbd615079	-0.055008385
140	0xbe076243	-0.13221078
141	0xbdc41797	-0.09574812
142	0xbdeb3c27	-0.114860825
143	0xbd473f5b	-0.048644405
144	0xbdb98c61	-0.09059978
145	0xbe65224c	-0.22376364
146	0xbdb5dadf	-0.08879637
147	0xbd729334	-0.059222415
148	0xbe387a34	-0.18015367
149	0xbe335b18	-0.17515218
150	0xbdbc9bdb	-0.092094146
151	0xbd31a51f	-0.043370362
152	0xbdab8aa4	-0.08376053
153	0xbe64c471	-0.22340561
154	0xbdeca7fc	-0.11555478
155	0xbd3b7e91	-0.045775
156	0xbda3472f	-0.079725616
157	0xbe404f89	-0.1878034
158	0xbdccafd8	-0.09994477
159	0xbcde68b8	-0.027149543
160	0xbd93f2f7	-0.07224076
161	0xbe252ae7	-0.16129647
162	0xbd8ed1f6	-0.069736406
163	0xbbd5f201	-0.0065290933
164	0xbd3359c5	-0.043786783
165	0xbdf4d5ca	-0.119548395
166	0xbdc91f67	-0.09820443
167	0x3d2977bb	0.04137395
168	0xbd428f0f	-0.047499713
169	0xbe0ec71d	-0.13943143
170	0xbdfeea49	-0.1244703
171	0x3e267579	0.1625575
172	0xbd44294e	-0.047890954
173	0xbde70d96	-0.11281888
174	0xbe01990a	-0.12656036
175	0x3e36df21	0.17858554
176	0xbcc20271	-0.023682805
177	0xbdd1a644	-0.10236791
178	0xbde38390	-0.11109078
179	0x3e05c42f	0.1306312
180	0xbd044414	-0.032291487
181	0xbda4cc4f	-0.08046781
182	0xbdad98d8	-0.08476418
183	0x3ddea118	0.1087057
184	0xbcde1e20	-0.027113974
185	0xbdc1ceae	-0.09463249
186	0xbd963fe1	-0.07336403
187	0x3dae78c3	0.08519127
188	0xbd1eca4f	-0.038767155
189	0xbdc449fc	-0.09584424
190	0xbdcd0b17	-0.10011881
191	0x3d91a96a	0.07112391
192	0xbd2aeeba	-0.041731574
193	0xbd69e619	-0.057104204
194	0xbf021e82	-0.508278
195	0x3e7e1175	0.24811347
196	0xbef03182	-0.4691277
197	0xbea9c0f0	-0.33155012
198	0x3e1158ab	0.1419398
199	0xbdb308d0	-0.08741915
200	0x3d9da9f2	0.0769843
201	0x3daaaf9d	0.08334277
202	0x3e0e97ae	0.13925049
203	0xbd9ec35b	-0.07752105
204	0x3dcb1bde	0.099174246
205	0x3de3bc1e	0.11119865
206	0x3e08e39d	0.13368078
207	0xbdb16e13	-0.08663573
208	0x3daea61c	0.085277766
209	0x3e05e087	0.13073932
210	0x3e260a60	0.16214895
211	0xbda8f18b	-0.08249196
212	0x3da26ad3	0.07930531
213	0x3e29a641	0.16567327
214	0x3e177d7b	0.14793961
215	0xbdff0d0b	-0.124536596
216	0x3d84c682	0.06483175
217	0x3e2dc39e	0.16969153
218	0x3dcf1104	0.10110667
219	0xbddf43e9	-0.10901625
220	0x3d589a07	0.052881267
221	0x3e39dd28	0.1815077
222	0x3e2bf0d9	0.16791095
223	0xbc09d6f3	-0.008413064
224	0x3d9f84d6	0.07789008
225	0x3e8fbd1d	0.2807397
226	0x3e198b8b	0.14994638
227	0x3d2b03a5	0.041751523
228	0x3dcebe58	0.10094899
229	0x3e74a66b	0.23891608
230	0x3e3a728d	0.1820776
231	0x3d82a7bc	0.06379649
232	0x3e4e047b	0.20118897
233	0x3e6e24c7	0.23256217
234	0x3e2ffdda	0.1718668
235	0x3d96de1b	0.07366582
236	0x3e3e858f	0.18605636
237	0x3e84b688	0.2592051
238	0x3e391543	0.18074517
239	0x3dc1ceaa	0.09463246
240	0x3e6ec204	0.23316199
241	0x3e8a0b3e	0.26961702
242	0x3e3c0013	0.18359403
243	0x3e02fef7	0.12792574
244	0x3e87437c	0.26418674
245	0x3e56870c	0.20949954
246	0x3e5412f1	0.2071035
247	0x3dc951c4	0.09830049
248	0x3e0dd58c	0.13850993
249	0x3eb1c9d6	0.347243
250	0x3e808353	0.25100192
251	0x3e5dbcb7	0.2165402
252	0x3e65e72e	0.2245147
253	0x3dfdb628	0.12388259
254	0x3e827805	0.25482193
255	0x3e2d31da	0.16913548

bias f4 [50]
0	0xbf4cf6e4	-0.80064225
1	0xbf4cf6e4	-0.80064225
2	0xbf4cf6e4	-0.80064225
3	0xbf4cf6e4	-0.80064225
4	0xbf4cf6e4	-0.80064225
5	0xbf4cf6e4	-0.80064225
6	0xbf4cf6e4	-0.80064225
7	0xbf4cf6e4	-0.80064225
8	0xbf4cf6e4	-0.80064225
9	0xbf4cf6e4	-0.80064225
10	0xbf4cf6e4	-0.80064225
11	0xbf4cf6e4	-0.80064225
12	0xbf4cf6e4	-0.80064225
13	0xbf4cf6e4	-0.80064225
14	0xbf4cf6e4	-0.80064225
15	0xbf4cf6e4	-0.80064225
16	0xbf4cf6e4	-0.80064225
17	0xbf4cf6e4	-0.80064225
18	0xbf4cf6e4	-0.80064225
19	0xbf4cf6e4	-0.80064225
20	0xbf4cf6e4	-0.80064225
21	0xbf4cf6e4	-0.80064225
22	0xbf4cf6e4	-0.80064225
23	0xbf4cf6e4	-0.80064225
24	0xbf4cf6e4	-0.80064225
25	0xbf4cf6e4	-0.80064225
26	0xbf4cf6e4	-0.80064225
27	0xbf4cf6e4	-0.80064225
28	0xbf4cf6e4	-0.80064225
29	0xbf4cf6e4	-0.80064225
30	0xbf4cf6e4	-0.80064225
31	0xbf4cf6e4	-0.80064225
32	0xbf4cf6e4	-0.80064225
33	0xbf4cf6e4	-0.80064225
34	0xbf4cf6e4	-0.80064225
35	0xbf4cf6e4	-0.80064225
36	0xbf4cf6e4	-0.80064225
37	0xbf4cf6e4	-0.80064225
38	0xbf4cf6e4	-0.80064225
39	0xbf4cf6e4	-0.80064225
40	0xbf4cf6e4	-0.80064225
41	0xbf4cf6e4	-0.80064225
42	0xbf4cf6e4	-0.80064225
43	0xbf4cf6e4	-0.80064225
44	0xbf4cf6e4	-0.80064225
45	0xbf4cf6e4	-0.80064225
46	0xbf4cf6e4	-0.80064225
47	0xbf4cf6e4	-0.80064225
48	0xbfd327f4	-1.6496568
49	0xbfd327f4	-1.6496568

weight f4 [1, 50]
0	0xbeae348f	-0.34024474
1	0xbeae348f	-0.34024474
2	0xbeae348f	-0.34024474
3	0xbeae348f	-0.34024474
4	0xbeae348f	-0.34024474
5	0xbeae348f	-0.34024474
6	0xbeae348f	-0.34024474
7	0xbeae348f	-0.34024474
8	0xbeae348f	-0.34024474
9	0xbeae348f	-0.34024474
10	0xbeae348f	-0.34024474
11	0xbeae348f	-0.34024474
12	0xbeae348f	-0.34024474
13	0xbeae348f	-0.34024474
14	0xbeae348f	-0.34024474
15	0xbeae348f	-0.34024474
16	0xbeae348f	-0.34024474
17	0xbeae348f	-0.34024474
18	0xbeae348f	-0.34024474
19	0xbeae348f	-0.34024474
20	0xbeae348f	-0.34024474
21	0xbeae348f	-0.34024474
22	0xbeae348f	-0.34024474
23	0xbeae348f	-0.34024474
24	0xbeae348f	-0.34024474
25	0xbeae348f	-0.34024474
26	0xbeae348f	-0.34024474
27	0xbeae348f	-0.34024474
28	0xbeae348f	-0.34024474
29	0xbeae348f	-0.34024474
30	0xbeae348f	-0.34024474
31	0xbeae348f	-0.34024474
32	0xbeae348f	-0.34024474
33	0xbeae348f	-0.34024474
34	0xbeae348f	-0.34024474
35	0xbeae348f	-0.34024474
36	0xbeae348f	-0.34024474
37	0xbeae348f	-0.34024474
38	0xbeae348f	-0.34024474
39	0xbeae348f	-0.34024474
40	0xbeae348f	-0.34024474
41	0xbeae348f	-0.34024474
42	0xbeae348f	-0.34024474
43	0xbeae348f	-0.34024474
44	0xbeae348f	-0.34024474
45	0xbeae348f	-0.34024474
46	0xbeae348f	-0.34024474
47	0xbeae348f	-0.34024474
48	0xc0ed3c20	-7.4135895
49	0xc0ed3c20	-7.4135895
