model.pth (torch_old, 48183 bytes, 3 tensors)

weight f4 [50, 198]
0.1306009 -0.08956019 0.0910337 0.08445707 0.14823566 -0.081933364 0.08164302 0.11575278
0.1336006 -0.06877286 0.058138777 0.111236446 0.14859444 -0.07571277 0.065163314 0.11548734
0.18523006 -0.10943356 0.061594803 0.1736743 0.10141855 -0.09588153 0.04381653 0.15912862
0.18693388 0.035112757 0.13126113 0.24396445 0.13441941 0.029701386 0.090483926 0.2517952
0.16437742 0.07997145 0.16096452 0.19838995 0.1898075 0.100026436 0.17443919 0.22651172
0.20231512 0.12364696 0.19079655 0.24770956 0.1851995 0.19918399 0.23484902 0.1885723
0.22699182 0.10783516 0.14727007 0.34152666 0.26937732 0.2059159 0.19589037 0.11053044
0.27694288 0.16977184 0.2027056 0.13273852 0.29462054 0.19121537 0.23128113 0.16032343
0.2690337 0.21343245 0.2332094 0.1337502 0.35477638 0.1838979 0.2370032 0.22418426
0.3395682 0.26168266 0.20915271 0.1378228 0.353981 0.2119234 0.27195576 0.3528194
0.36391234 0.23275319 0.2981689 0.31690928 0.3722405 0.25365946 0.30539513 0.26184523
0.3898955 0.31743515 0.33148676 0.22570166 0.38453588 0.3384935 0.38247162 0.27027953
0.9176789 -2.348796 -0.23961198 -0.22856969 -0.26871428 -0.32076463 -0.23275262 -0.17360665
-0.23430991 -0.28013715 -0.24285454 -0.14064468 -0.21558835 -0.31580108 -0.2346522 -0.12223094
-0.18302478 -0.34425402 -0.23191154 -0.10732931 -0.15538584 -0.34823638 -0.285787 -0.20213574
-0.19470948 -0.16954857 -0.20324935 -0.06039366 -0.15947184 -0.1976907 -0.17583752 -0.09566235
-0.19119814 -0.1481304 -0.19711274 -0.13203907 -0.18319109 -0.14941786 -0.1868677 -0.12128226
-0.1643726 -0.12294289 -0.17675762 -0.17344396 -0.15913162 -0.09588365 -0.16179752 -0.07592054
-0.11579424 -0.23790652 -0.09058928 -0.08799513 -0.1735581 -0.17140867 -0.11112124 -0.05912373
-0.140152 -0.22912328 -0.14555013 -0.054360755 -0.11845146 -0.18435736 -0.099690914 -0.039827697
-0.11105594 -0.16293152 -0.09951021 -0.004104545 -0.07074411 -0.1528675 -0.12130575 0.051134832
-0.056019437 -0.17538057 -0.13371718 0.13087052 -0.08046081 -0.11308574 -0.1504815 0.16548747
-0.03481356 -0.12819377 -0.1358054 0.11924861 -0.07820139 -0.108059965 -0.14014162 0.10788807
-0.06901213 -0.09803429 -0.11043067 0.08026929 -0.027802227 -0.08579127 -0.13594194 0.047276292
-0.09015576 -0.056725338 -0.5985604 0.50852305 -0.42132834 -0.30200875 0.1306009 -0.08956019
0.0910337 0.08445707 0.14823566 -0.081933364 0.08164302 0.11575278 0.1336006 -0.06877286
0.058138777 0.111236446 0.14859444 -0.07571277 0.065163314 0.11548734 0.18523006 -0.10943356
0.061594803 0.1736743 0.10141855 -0.09588153 0.04381653 0.15912862 0.18693388 0.035112757
0.13126113 0.24396445 0.13441941 0.029701386 0.090483926 0.2517952 0.16437742 0.07997145
0.16096452 0.19838995 0.1898075 0.100026436 0.17443919 0.22651172 0.20231512 0.12364696
0.19079655 0.24770956 0.1851995 0.19918399 0.23484902 0.1885723 0.22699182 0.10783516
0.14727007 0.34152666 0.26937732 0.2059159 0.19589037 0.11053044 0.27694288 0.16977184
00000000: 3ebc 053e 556b b7bd e06f ba3d d4f7 ac3d
00000010: 17cb 173e aecc a7bd 7534 a73d cb0f ed3d
00000020: 98ce 083e c9d8 8cbd ed22 6e3d efcf e33d
00000030: 2429 183e 4c0f 9bbd 5874 853d a084 ec3d
00000040: f3ac 3d3e b41e e0bd d54a 7c3d add7 313e
00000050: 87b4 cf3d 895d c4bd f678 333d 9df2 223e
00000060: 986b 3f3e 65d2 0f3d 5169 063e d1d1 793e
00000070: 3ea5 093e 5250 f33c a34f b93d 4deb 803e
00000080: 8e52 283e 12c8 a33d e2d3 243e bc26 4b3e
00000090: e65c 423e a9da cc3d 30a0 323e b0f2 673e
000000a0: b22b 4f3e 9e3a fd3d 2c60 433e 93a7 7d3e
000000b0: f0a4 3d3e e3f6 4b3e 437c 703e 1919 413e
000000c0: 8b70 683e aed8 dc3d f7cd 163e 95dc ae3e
000000d0: d3eb 893e 9edb 523e 7c97 483e c95d e23d
000000e0: 75cb 8d3e abd8 2d3e 0f92 4f3e 9bec 073e
000000f0: 81d8 963e f6cd 433e f6d4 6c3e d32b 243e
00000100: c9be 893e 098e 5a3e 72ce 6e3e d0f5 083e
00000110: 40a5 b53e bb4f 3c3e f8b0 723e 8f90 653e
00000120: e2db ad3e 45fb 853e 212c 563e 6c21 0d3e
00000130: ff3c b53e 7302 593e c93d 8b3e bfa4 b43e
00000140: b852 ba3e da56 6e3e 98a9 983e ef41 a23e
00000150: 4f96 be3e a7df 813e c05c 9c3e 9410 863e
00000160: 62a0 c73e dc86 a23e a2b8 a93e 561e 673e
00000170: e3e1 c43e 054f ad3e 52d3 c33e 1462 8a3e
00000180: 01ed 6a3f ac52 16c0 d85c 75be 2c0e 6abe
00000190: eb94 89be 433b a4be b456 6ebe f1c5 31be
000001a0: f0ee 6fbe 236e 8fbe dcae 78be 2905 10be
000001b0: 31c3 5cbe aeb0 a1be ab48 70be 3754 fabd
000001c0: d96a 3bbe 1042 b0be 387a 6dbe 78cf dbbd
000001d0: 771d 1fbe 0a4c b2be ac52 92be acfc 4ebe
000001e0: ec61 47be 249e 2dbe 9920 50be 585f 77bd
000001f0: 964c 23be 6e6f 4abe c00e 34be 9fea c3bd
00000200: 72c9 43be 7faf 17be ecd7 49be 4035 07be
00000210: 7296 3bbe ff00 19be 3f5a 3fbe d562 f8bd
00000220: 4a51 28be 7bc9 fbbd f3ff 34be 4b9b 31be
00000230: 66f3 22be a65e c4bd 40ae 25be 3a7c 9bbd
00000240: 8825 edbd c49d 73be df86 b9bd ca36 b4bd
00000250: 37b9 31be c185 2fbe 8893 e3bd b92b 72bd
00000260: 0284 0fbe 4b9f 6abe 180b 15be 62a9 5ebd
00000270: ae96 f2bd 2dc8 3cbe c02a ccbd 5e22 23bd
00000280: 4c71 e3bd 85d7 26be 02cc cbbd 6b7f 86bb
00000290: 4ae2 90bd 4c89 1cbe 266f f8bd c272 513d
000002a0: a374 65bd f796 33be 28ed 08be ec02 063e
000002b0: a3c8 a4bd 7f99 e7bd d317 1abe 8c75 293e
000002c0: aa98 0ebd 3a45 03be 9210 0bbe 9e38 f43d
000002d0: 0d28 a0bd 8b4e ddbd 4981 0fbe 6cf4 dc3d
000002e0: 3b56 8dbd 34c6 c8bd 7a29 e2bd 3a64 a43d
000002f0: 7fc1 e3bc 55b3 afbd 5d34 0bbe c9a4 413d
00000300: 95a3 b8bd d458 68bd 413b 19bf 912e 023f
00000310: 59b8 d7be e4a0 9abe 3ebc 053e 556b b7bd
00000320: e06f ba3d d4f7 ac3d 17cb 173e aecc a7bd
00000330: 7534 a73d cb0f ed3d 98ce 083e c9d8 8cbd
00000340: ed22 6e3d efcf e33d 2429 183e 4c0f 9bbd
00000350: 5874 853d a084 ec3d f3ac 3d3e b41e e0bd
00000360: d54a 7c3d add7 313e 87b4 cf3d 895d c4bd
00000370: f678 333d 9df2 223e 986b 3f3e 65d2 0f3d
00000380: 5169 063e d1d1 793e 3ea5 093e 5250 f33c
00000390: a34f b93d 4deb 803e 8e52 283e 12c8 a33d
000003a0: e2d3 243e bc26 4b3e e65c 423e a9da cc3d
000003b0: 30a0 323e b0f2 673e b22b 4f3e 9e3a fd3d
000003c0: 2c60 433e 93a7 7d3e f0a4 3d3e e3f6 4b3e
000003d0: 437c 703e 1919 413e 8b70 683e aed8 dc3d
000003e0: f7cd 163e 95dc ae3e d3eb 893e 9edb 523e
000003f0: 7c97 483e c95d e23d 75cb 8d3e abd8 2d3e

bias f4 [50]
-0.72331375 -0.72331375 -0.72331375 -0.72331375 -0.72331375 -0.72331375 -0.72331375 -0.72331375
-0.72331375 -0.72331375 -0.72331375 -0.72331375 -0.72331375 -0.72331375 -0.72331375 -0.72331375
-0.72331375 -0.72331375 -0.72331375 -0.72331375 -0.72331375 -0.72331375 -0.72331375 -0.72331375
-0.72331375 -0.72331375 -0.72331375 -0.72331375 -0.72331375 -0.72331375 -0.72331375 -0.72331375
-0.72331375 -0.72331375 -0.72331375 -0.72331375 -0.72331375 -0.72331375 -0.72331375 -0.72331375
-0.72331375 -0.72331375 -0.72331375 -0.72331375 -0.72331375 -0.72331375 -0.72331375 -0.72331375
-1.674208 -1.674208
00000000: 172b 39bf 172b 39bf 172b 39bf 172b 39bf
00000010: 172b 39bf 172b 39bf 172b 39bf 172b 39bf
00000020: 172b 39bf 172b 39bf 172b 39bf 172b 39bf
00000030: 172b 39bf 172b 39bf 172b 39bf 172b 39bf
00000040: 172b 39bf 172b 39bf 172b 39bf 172b 39bf
00000050: 172b 39bf 172b 39bf 172b 39bf 172b 39bf
00000060: 172b 39bf 172b 39bf 172b 39bf 172b 39bf
00000070: 172b 39bf 172b 39bf 172b 39bf 172b 39bf
00000080: 172b 39bf 172b 39bf 172b 39bf 172b 39bf
00000090: 172b 39bf 172b 39bf 172b 39bf 172b 39bf
000000a0: 172b 39bf 172b 39bf 172b 39bf 172b 39bf
000000b0: 172b 39bf 172b 39bf 172b 39bf 172b 39bf
000000c0: 734c d6bf 734c d6bf

weight f4 [1, 50]
-0.31698585 -0.31698585 -0.31698585 -0.31698585 -0.31698585 -0.31698585 -0.31698585 -0.31698585
-0.31698585 -0.31698585 -0.31698585 -0.31698585 -0.31698585 -0.31698585 -0.31698585 -0.31698585
-0.31698585 -0.31698585 -0.31698585 -0.31698585 -0.31698585 -0.31698585 -0.31698585 -0.31698585
-0.31698585 -0.31698585 -0.31698585 -0.31698585 -0.31698585 -0.31698585 -0.31698585 -0.31698585
-0.31698585 -0.31698585 -0.31698585 -0.31698585 -0.31698585 -0.31698585 -0.31698585 -0.31698585
-0.31698585 -0.31698585 -0.31698585 -0.31698585 -0.31698585 -0.31698585 -0.31698585 -0.31698585
-7.127739 -7.127739
00000000: f84b a2be f84b a2be f84b a2be f84b a2be
00000010: f84b a2be f84b a2be f84b a2be f84b a2be
00000020: f84b a2be f84b a2be f84b a2be f84b a2be
00000030: f84b a2be f84b a2be f84b a2be f84b a2be
00000040: f84b a2be f84b a2be f84b a2be f84b a2be
00000050: f84b a2be f84b a2be f84b a2be f84b a2be
00000060: f84b a2be f84b a2be f84b a2be f84b a2be
00000070: f84b a2be f84b a2be f84b a2be f84b a2be
00000080: f84b a2be f84b a2be f84b a2be f84b a2be
00000090: f84b a2be f84b a2be f84b a2be f84b a2be
000000a0: f84b a2be f84b a2be f84b a2be f84b a2be
000000b0: f84b a2be f84b a2be f84b a2be f84b a2be
000000c0: 7016 e4c0 7016 e4c0
